…
 'stackwise_strides': [1, 2, 2, 2, 1, 2],
 'stackwise_conv_types': ['fused',
  'fused',
  'fused',
  'unfused',
  'unfused',
  'unfused']}

from keras_cv.src.models.backbones.efficientnet_v2.efficientnet_v2_backbone import EfficientNetV2Backbone

model=EfficientNetV2Backbone.from_preset('efficientnetv2_b2',input_shape=(224,224,3))

model.get_config()

model.summary()

━━━━━━━━━━━━━━━━━━━━━━━━━━━━━━━━━┳━━━━━━━━━━━━━━━━━━━━━━━━┳━━━━━━━━━━━━━━━┓
┃ Layer (type)                    ┃ Output Shape           ┃       Param # ┃
┡━━━━━━━━━━━━━━━━━━━━━━━━━━━━━━━━━╇━━━━━━━━━━━━━━━━━━━━━━━━╇━━━━━━━━━━━━━━━┩
│ input_layer_1 (InputLayer)      │ (None, 224, 224, 3)    │             0 │
├─────────────────────────────────┼────────────────────────┼───────────────┤
│ rescaling_1 (Rescaling)         │ (None, 224, 224, 3)    │             0 │
├─────────────────────────────────┼────────────────────────┼───────────────┤
│ stem_conv (Conv2D)              │ (None, 112, 112, 32)   │           864 │
├─────────────────────────────────┼────────────────────────┼───────────────┤
│ stem_bn (BatchNormalization)    │ (None, 112, 112, 32)   │           128 │
├─────────────────────────────────┼────────────────────────┼───────────────┤
│ stem_activation (Activation)    │ (None, 112, 112, 32)   │             0 │
├─────────────────────────────────┼────────────────────────┼───────────────┤
│ block1a_ (FusedMBConvBlock)     │ (None, 112, 112, 16)   │         4,672 │
├─────────────────────────────────┼────────────────────────┼───────────────┤
│ block1b_ (FusedMBConvBlock)     │ (None, 112, 112, 16)   │         2,368 │
├─────────────────────────────────┼────────────────────────┼───────────────┤
│ block2a_ (FusedMBConvBlock)     │ (None, 56, 56, 32)     │        11,648 │
├─────────────────────────────────┼────────────────────────┼───────────────┤
│ block2b_ (FusedMBConvBlock)     │ (None, 56, 56, 32)     │        41,600 │
├─────────────────────────────────┼────────────────────────┼───────────────┤
│ block2c_ (FusedMBConvBlock)     │ (None, 56, 56, 32)     │        41,600 │
├─────────────────────────────────┼────────────────────────┼───────────────┤
│ block3a_ (FusedMBConvBlock)     │ (None, 28, 28, 56)     │        44,768 │
├─────────────────────────────────┼────────────────────────┼───────────────┤
│ block3b_ (FusedMBConvBlock)     │ (None, 28, 28, 56)     │       126,560 │
├─────────────────────────────────┼────────────────────────┼───────────────┤
│ block3c_ (FusedMBConvBlock)     │ (None, 28, 28, 56)     │       126,560 │
├─────────────────────────────────┼────────────────────────┼───────────────┤
│ block4a_ (MBConvBlock)          │ (None, 14, 14, 104)    │        46,574 │
├─────────────────────────────────┼────────────────────────┼───────────────┤
│ block4b_ (MBConvBlock)          │ (None, 14, 14, 104)    │       116,090 │
├─────────────────────────────────┼────────────────────────┼───────────────┤
│ block4c_ (MBConvBlock)          │ (None, 14, 14, 104)    │       116,090 │
├─────────────────────────────────┼────────────────────────┼───────────────┤
│ block4d_ (MBConvBlock)          │ (None, 14, 14, 104)    │       116,090 │
├─────────────────────────────────┼────────────────────────┼───────────────┤
│ block5a_ (MBConvBlock)          │ (None, 14, 14, 120)    │       183,962 │
├─────────────────────────────────┼────────────────────────┼───────────────┤
│ block5b_ (MBConvBlock)          │ (None, 14, 14, 120)    │       229,470 │
├─────────────────────────────────┼────────────────────────┼───────────────┤
│ block5c_ (MBConvBlock)          │ (None, 14, 14, 120)    │       229,470 │
├─────────────────────────────────┼────────────────────────┼───────────────┤
│ block5d_ (MBConvBlock)          │ (None, 14, 14, 120)    │       229,470 │
├─────────────────────────────────┼────────────────────────┼───────────────┤
│ block5e_ (MBConvBlock)          │ (None, 14, 14, 120)    │       229,470 │
├─────────────────────────────────┼────────────────────────┼───────────────┤
│ block5f_ (MBConvBlock)          │ (None, 14, 14, 120)    │       229,470 │
├─────────────────────────────────┼────────────────────────┼───────────────┤
│ block6a_ (MBConvBlock)          │ (None, 7, 7, 208)      │       293,182 │
├─────────────────────────────────┼────────────────────────┼───────────────┤
│ block6b_ (MBConvBlock)          │ (None, 7, 7, 208)      │       672,308 │
├─────────────────────────────────┼────────────────────────┼───────────────┤
│ block6c_ (MBConvBlock)          │ (None, 7, 7, 208)      │       672,308 │
├─────────────────────────────────┼────────────────────────┼───────────────┤
│ block6d_ (MBConvBlock)          │ (None, 7, 7, 208)      │       672,308 │
├─────────────────────────────────┼────────────────────────┼───────────────┤
│ block6e_ (MBConvBlock)          │ (None, 7, 7, 208)      │       672,308 │
├─────────────────────────────────┼────────────────────────┼───────────────┤
│ block6f_ (MBConvBlock)          │ (None, 7, 7, 208)      │       672,308 │
├─────────────────────────────────┼────────────────────────┼───────────────┤
│ block6g_ (MBConvBlock)          │ (None, 7, 7, 208)      │       672,308 │
├─────────────────────────────────┼────────────────────────┼───────────────┤
│ block6h_ (MBConvBlock)          │ (None, 7, 7, 208)      │       672,308 │
├─────────────────────────────────┼────────────────────────┼───────────────┤
│ block6i_ (MBConvBlock)          │ (None, 7, 7, 208)      │       672,308 │
├─────────────────────────────────┼────────────────────────┼───────────────┤
│ block6j_ (MBConvBlock)          │ (None, 7, 7, 208)      │       672,308 │
├─────────────────────────────────┼────────────────────────┼───────────────┤
│ top_conv (Conv2D)               │ (None, 7, 7, 1408)     │       292,864 │
├─────────────────────────────────┼────────────────────────┼───────────────┤
│ top_bn (BatchNormalization)     │ (None, 7, 7, 1408)     │         5,632 │
├─────────────────────────────────┼────────────────────────┼───────────────┤
│ top_activation (Activation)     │ (None, 7, 7, 1408)     │             0 │
└─────────────────────────────────┴────────────────────────┴───────────────┘

 Total params: 8,769,374 (33.45 MB)

 Trainable params: 8,687,086 (33.14 MB)

 Non-trainable params: 82,288 (321.44 KB)

从这里可以清楚看到effinetv2的架构,较浅的层用的FusedMBConvBlock,较深的层用的MBConvBlock,所谓融合,其实并非融合,你可以理解成用标准卷积替换了MBConv中的扩张点卷积和深度卷积,没有se模块,残差部分是较小通道的点卷积,所谓MBConv,是固定的一个套路,压缩点卷积(残差前段)-->扩张点卷积-->深度卷积-->se模块-->压缩点卷积(残差后段),别人说
…
